model/keypoint_classifier/keypoint_classifier.tflite (tflite, 6724 bytes, 6 tensors)

sequential/dense/BiasAdd/ReadVariableOp f4 [20]
0	0xbf06607e	-0.52490985
1	0xbf01fd1f	-0.5077686
2	0xbf416e41	-0.7555886
3	0xbf5debb5	-0.86687785
4	0xbf70aef8	-0.9401698
5	0x3d04e20e	0.032442145
6	0xbf338816	-0.70129526
7	0xbf78c2fa	-0.9717251
8	0xbf305150	-0.68874073
9	0x3f2699dd	0.65078527
10	0xbf35a83a	-0.7095982
11	0xbf81f6d3	-1.015345
12	0xbea1626e	-0.31520408
13	0xbee35a34	-0.44404757
14	0xbefd33c4	-0.49453557
15	0xbec0b716	-0.37639683
16	0xbef019ba	-0.46894628
17	0xbf313613	-0.69223136
18	0xbefab0eb	-0.48963103
19	0x3f3c45c3	0.7354395

sequential/dense_2/BiasAdd/ReadVariableOp f4 [8]
0	0xbebd8a1b	-0.3701943
1	0xbf1a71c3	-0.60329837
2	0x3f3574fa	0.7088162
3	0x3d26f5b1	0.040761653
4	0x3e4a5517	0.19759022
5	0x3e559758	0.20858514
6	0x3b8f0fce	0.0043658977
7	0x3eb9bac3	0.362753

sequential/dense_1/BiasAdd/ReadVariableOp f4 [10]
0	0xbf0c56a9	-0.5481973
1	0x3f31918c	0.6936271
2	0xbe19222d	-0.14954443
3	0x3e87b1d5	0.26502863
4	0x3dcf910a	0.10135086
5	0x3d2b3926	0.041802548
6	0x3f934b88	1.1507425
7	0x3d87b544	0.066263705
8	0x3f193d39	0.59859043
9	0x3eb5079d	0.3535737

sequential/dense/MatMul f4 [20, 42]
0	0xbe8815f1	-0.2657924
1	0x3e012a14	0.12613708
2	0xbec5909c	-0.3858689
3	0x3fcc8de9	1.5980808
4	0xbe14b0f8	-0.14520633
5	0x3fb227dd	1.3918415
6	0xbf44de31	-0.7690154
7	0x3f56c13b	0.83888596
8	0xbf8a0ba1	-1.0784799
9	0x3ec02fa0	0.37536335
10	0x3f0d0000	0.55078125
11	0x3f1a0d46	0.60176504
12	0x3d624b76	0.055247746
13	0x3e8c4ff2	0.27404743
14	0x3e1fdd0a	0.15611663
15	0x3e7b8922	0.24564031
16	0x3e0f20ce	0.13977358
17	0x3ea9c7bc	0.33160198
18	0x3ea26dee	0.31724495
19	0x3e98b6b3	0.29826888
20	0x3d911a69	0.070851155
21	0xbd6e03ae	-0.058108978
22	0x3d98512f	0.074373595
23	0xbe6bb055	-0.23016484
24	0x3c96e994	0.018421926
25	0xbe02454e	-0.1272175
26	0x3d11729b	0.035509687
27	0x3d866e40	0.06563997
28	0x3e3c69e3	0.18399768
29	0xbe79cc87	-0.24394427
30	0x3d781228	0.06056419
31	0xbea23310	-0.31679583
32	0xbdbb5a80	-0.09148121
33	0xbe3ea6a0	-0.1861825
34	0xbe01d011	-0.12677027
35	0xbe19633d	-0.14979263
36	0x3e96ad9d	0.2942933
37	0xbed0f51a	-0.40811998
38	0x3e9ec865	0.31012264
39	0xbf089678	-0.533546
40	0x3e10d619	0.14144172
41	0xbf0bf24c	-0.5466659
42	0x3e8f019e	0.2793092
43	0xbe7bea84	-0.2460118
44	0xbdee0274	-0.11621562
45	0x3e5bccb4	0.21464807
46	0xbdb8dce3	-0.09026506
47	0x3dbf1c1f	0.093315355
48	0xbb0f1913	-0.0021835014
49	0x3ca8270a	0.020526428
50	0x3d9b6dd2	0.07589306
51	0x3c6e639c	0.014550116
52	0xbc0b0630	-0.008485362
53	0x3dce5a1c	0.10075781
54	0xbd31d9a4	-0.04342045
55	0x3d7b1bbb	0.061305743
56	0xbdcf6632	-0.10126914
57	0x3d1bbef4	0.038023904
58	0xbd86d193	-0.06582942
59	0x3c452feb	0.01203535
60	0x3cb5e70f	0.022204904
61	0x3d7a8196	0.06115874
62	0x3db1db25	0.086843766
63	0x3d83656c	0.06415829
64	0x3e6114c0	0.21980572
65	0x3a05fa34	0.00051108305
66	0x3f1d91a0	0.6155033
67	0xbfc74964	-1.5569272
68	0x3dbee8f9	0.0932178
69	0x3da7e1de	0.081973776
70	0x3daaf430	0.08347356
71	0x3d877a42	0.06615116
72	0x3c862813	0.01637653
73	0x3d3b942f	0.045795616
74	0xbe73e4ee	-0.23817798
75	0x3bbf1944	0.0058318693
76	0x3e10367b	0.14083283
77	0x3dc5e0db	0.096620284
78	0xbcca2a1c	-0.024678282
79	0x3dd4c93f	0.10389947
80	0xbe58e097	-0.21179424
81	0x3e0dc535	0.1384476
82	0xbed7064f	-0.41997
83	0x3dcbf82c	0.099594444
84	0xbcdad380	-0.02671218
85	0x3e1a4ca6	0.15068302
86	0xbdc3ca44	-0.095600635
87	0x3f0c3007	0.54760784
88	0xbe3fe48d	-0.18739529
89	0xbdcb5d1b	-0.09929868
90	0xbd2a7cc1	-0.04162288
91	0xbdfc8e8f	-0.123318784
92	0x3cacecfe	0.0211091
93	0xbec44f58	-0.38341784
94	0xbf1375ad	-0.57601434
95	0xbe84e8b5	-0.2595879
96	0xbdbdbb99	-0.09264297
97	0xbde07f8e	-0.10961829
98	0x3e5f3fd9	0.218017
99	0x3d1db27d	0.038500298
100	0x3e895d83	0.26829156
101	0x3e0f06e7	0.13967477
102	0xbf2892e9	-0.6584917
103	0xbe3f60a2	-0.18689206
104	0xbe244b9f	-0.16044472
105	0xbdc01605	-0.093792
106	0x3e798931	0.2436874
107	0x3e092eee	0.13396809
108	0x3e919b5e	0.28438848
109	0x3e184d8c	0.14873332
110	0xbf4ab9b4	-0.7918961
111	0xbec4f96f	-0.38471553
112	0xbe5be3ae	-0.21473572
113	0xbdf4d64c	-0.119549364
114	0x3e7d38df	0.24728726
115	0x3dd2cc3c	0.10292861
116	0x3e457ebe	0.1928663
117	0x3e20b35a	0.15693417
118	0xbf27ff91	-0.6562434
119	0xbf0ce029	-0.5502954
120	0xbe49afe7	-0.19696008
121	0xbe8c8d21	-0.27451423
122	0x3dc4eaad	0.09615073
123	0x3dab4df5	0.083644785
124	0x3e1ec2ed	0.15504046
125	0x3e1cca4e	0.15311548
126	0x3e68ab20	0.22721529
127	0x3e36f71e	0.17867705
128	0xbedd3d51	-0.43210843
129	0xbd559925	-0.052148003
130	0xbe2f5713	-0.1712306
131	0x3e07cf96	0.13262782
132	0xbeb62565	-0.35575405
133	0xbe9f78f9	-0.31146982
134	0xbf5ac7d1	-0.85461146
135	0xbec54e00	-0.38536072
136	0xbda6f65e	-0.081524596
137	0x3de334a9	0.110940285
138	0x3a83f8bb	0.0010068634
139	0xbd276512	-0.040867873
140	0x3ddd082f	0.107925765
141	0x3d833638	0.06406826
142	0x3e30831f	0.17237519
143	0x3dfe6af2	0.12422742
144	0xbe5c4f0c	-0.21514529
145	0x3ddd5683	0.108075164
146	0xbc3532df	-0.011059492
147	0xbdbf90a6	-0.093537614
148	0xbcd096ba	-0.025462497
149	0xbd881079	-0.06643767
150	0xbda60b6b	-0.081076466
151	0xbc09dbb7	-0.0084142005
152	0xbeb4e1c9	-0.3532851
153	0x3d93cdd5	0.07216994
154	0x3dba7bea	0.09105666
155	0xbddeb4e0	-0.10874343
156	0x3e34c977	0.17654978
157	0xbda31659	-0.07963247
158	0x3d1d294d	0.038369466
159	0xbd1df7be	-0.038566343
160	0xbe1d1c80	-0.15342903
161	0xbbd5e626	-0.00652768
162	0x3e1d812a	0.15381303
163	0xbdfb356a	-0.12266047
164	0x3e8fdbb7	0.28097317
165	0xbe0afda5	-0.1357332
166	0x3e08e010	0.13366723
167	0xbdaa44a7	-0.08313876
168	0xbe91a477	-0.2844579
169	0x3e7f33a4	0.24922043
170	0xbed88715	-0.4229056
171	0xbf4168fd	-0.75550824
172	0xbed8606c	-0.42261064
173	0xbef85952	-0.48505646
174	0xbeeca35a	-0.46218377
175	0xbe4b3503	-0.19844441
176	0xbe5a5468	-0.21321261
177	0xbea7386a	-0.32660228
178	0xbf19e702	-0.60118115
179	0xbe9f16fb	-0.3107222
180	0xbe830dcb	-0.2559646
181	0xbe836f68	-0.25670934
182	0x3d4d8f2a	0.05018536
183	0xbd567905	-0.052361507
184	0x3e07894a	0.13235965
185	0x3c1fdf60	0.009757847
186	0xbf40ef46	-0.753651
187	0xbe5a6512	-0.21327618
188	0xbe628880	-0.22122383
189	0x3c9592b5	0.018258432
190	0x3e5ddd6c	0.21666497
191	0x3e13cdcf	0.14433978
192	0x3e93be92	0.2885633
193	0x3dba1d86	0.090876624
194	0xbf021c29	-0.5082422
195	0xbd16b129	-0.036790047
196	0xbe1b28b7	-0.1515225
197	0x3cc0936d	0.023507798
198	0x3e19bac9	0.15012659
199	0x3dbf546e	0.093422756
200	0x3e1e5ef4	0.15465909
201	0x3d8ec817	0.06971758
202	0x3d47e36a	0.048800863
203	0x3d4ac292	0.049501963
204	0xbafccbf6	-0.0019286859
205	0x3d7b573b	0.061362486
206	0x3d126fe9	0.035751257
207	0x3e1c255e	0.1524863
208	0x3de490cb	0.111604296
209	0x3e305c36	0.17222676
210	0x3bdcedc0	0.006742209
211	0xbbc31500	-0.005953431
212	0x3cd21eee	0.025649514
213	0x3f426e38	0.7594943
214	0x3d00e3cb	0.03146724
215	0x3eed199b	0.46308598
216	0xbc449ce4	-0.012000296
217	0x3ee6aa32	0.45051724
218	0xbd6838b8	-0.056694716
219	0x3ed46963	0.41486654
220	0xbd5bbf89	-0.05364946
221	0xbd493c49	-0.049129758
222	0x3d9e8859	0.0774085
223	0xbddaf54f	-0.1069132
224	0x3deb6275	0.114933886
225	0xbe914e23	-0.28379926
226	0x3e52eece	0.2059891
227	0xbf72dd54	-0.9486897
228	0xbc5c97ee	-0.013463957
229	0xbd4ee48b	-0.050510924
230	0xbe1238f6	-0.14279541
231	0x3e161201	0.14655305
232	0xbe3e2e04	-0.18572241
233	0x3e58f188	0.21185887
234	0xbdf27c84	-0.11840156
235	0x3d96894d	0.07350407
236	0x3d02af91	0.031905714
237	0xbd170ae8	-0.036875635
238	0xbe09443b	-0.13404934
239	0x3e17664a	0.14785114
240	0xbd8456fa	-0.06461902
241	0x3dc0e8ac	0.09419379
242	0xbd80143b	-0.06253859
243	0xbd3270e2	-0.043564685
244	0x3e26dc30	0.16294932
245	0xbd84cbb4	-0.06484166
246	0xbbfee934	-0.007779265
247	0x3dd323a2	0.10309531
248	0xbc9c00a7	-0.01904328
249	0x3de41e70	0.11138618
250	0x3d73ce63	0.059522998
251	0x3c9818d4	0.018566526
252	0xbc9e1d30	-0.019301027
253	0x3ddbefe8	0.10739118
254	0x3f5d7099	0.86499935
255	0xbec118cf	-0.3771424

sequential/dense_1/MatMul f4 [10, 20]
0	0x3ed6c836	0.41949624
1	0x3d242f02	0.040083893
2	0x3f0b13b7	0.5432696
3	0x3ec928b7	0.39288875
4	0x3ee81315	0.45327058
5	0x3e4818cc	0.1954071
6	0x3ee79c20	0.452363
7	0x3f0212e3	0.5081007
8	0x3f8e5b15	1.1121546
9	0x3d54e250	0.05197364
10	0x3f018e91	0.50608164
11	0xbf4782bc	-0.7793386
12	0x3eb5971d	0.35466853
13	0x3ecf7388	0.4051783
14	0x3f1aabfa	0.60418665
15	0x3f0b69d7	0.54458374
16	0x3e4e597c	0.20151323
17	0x3f36b17d	0.71364576
18	0x3efb89f0	0.49128675
19	0x3dfa1740	0.12211466
20	0xbe96af2b	-0.29430518
21	0xbe878100	-0.26465607
22	0x3f5d773c	0.8651006
23	0xbeee1f7b	-0.46508393
24	0x3eede36e	0.46462578
25	0x3e6ec380	0.23316765
26	0x3f4a6a20	0.79068184
27	0xbdab350d	-0.08359728
28	0x3e75924f	0.23981594
29	0xbd60ba18	-0.054864973
30	0xbe1bf384	-0.15229613
31	0x3f024471	0.50885683
32	0xbf301862	-0.68787205
33	0x3eefcf37	0.4683778
34	0x3ecfbbc2	0.40572935
35	0xbe6a880a	-0.22903457
36	0x3edcffb3	0.43163833
37	0x3e21de0d	0.15807362
38	0x3ea43833	0.32074127
39	0x3df35f75	0.11883441
40	0x3f3c4f64	0.7355864
41	0x3caa9349	0.020822184
42	0xbea035d4	-0.31291068
43	0x3faa6409	1.3311778
44	0x3f621e78	0.8832774
45	0x3eb931d8	0.3617084
46	0x3f1dac8d	0.61591417
47	0xbd21303a	-0.039352633
48	0x3e9819ea	0.2970727
49	0x3eaa5507	0.33267996
50	0x3d344649	0.04401234
51	0xbe4c5f7c	-0.199583
52	0x3e4b4499	0.19850387
53	0x3f42cb5d	0.7609156
54	0x3e31b054	0.1735242
55	0x3f956292	1.1670706
56	0xbdbca55c	-0.09211227
57	0xbf06bd9e	-0.5263308
58	0x3f79133d	0.9729498
59	0x3efdeddd	0.49595538
60	0x3f0e1096	0.5549406
61	0x3fa55b2f	1.2918452
62	0x3f124d33	0.57149047
63	0x3f666726	0.9000114
64	0x3e0fc784	0.14040953
65	0xbe16dad3	-0.14731912
66	0xbeccad74	-0.39976084
67	0x3f8b6717	1.0890836
68	0x3e8e1ce2	0.2775641
69	0x3d75eec7	0.06004217
70	0x3f8966d6	1.0734508
71	0x3f9c9285	1.2232214
72	0x3f3393c0	0.70147324
73	0x3efb111f	0.490365
74	0x3eb0786c	0.34466875
75	0xbeb274f5	-0.34854856
76	0x3bfec489	0.0077748937
77	0x3d277912	0.040886946
78	0x3dc159ac	0.09440932
79	0xbef6f65a	-0.48234826
80	0xbeda4bfb	-0.42636093
81	0x3da897df	0.08232092
82	0xbf4e18cc	-0.8050659
83	0x3f352c1d	0.70770437
84	0x3f1fc0a8	0.62403345
85	0xbebe06c2	-0.3711453
86	0x3f0500f4	0.5195458
87	0x3c087ce9	0.008330562
88	0x3f13d12b	0.5774104
89	0x3d97752d	0.073953964
90	0xbd754014	-0.059875563
91	0x3ea6f6d7	0.326102
92	0x3ca0233f	0.019548057
93	0x3e45e1fc	0.19324487
94	0x3e040783	0.1289349
95	0x3e9e07fc	0.30865467
96	0x3f4c002c	0.7968776
97	0x3f5f1c6a	0.8715273
98	0x3f42e6b5	0.7613328
99	0x3d30c43a	0.043155886
100	0xbdd54d0a	-0.10415085
101	0xbd3e225d	-0.04641949
102	0x3f0bb0c7	0.54566616
103	0xbe8a8c60	-0.27060223
104	0xbe7bd8a5	-0.24594362
105	0xbb1d1367	-0.0023967864
106	0x3fb22b85	1.3919531
107	0x3d696430	0.056980312
108	0xbebcdd2e	-0.36887497
109	0x3e1b8f0b	0.15191285
110	0x3db852fc	0.09000203
111	0x3c41b107	0.011821992
112	0xbcdd1383	-0.026986843
113	0x3f4929f8	0.78579664
114	0xbe81aec6	-0.25328654
115	0x3f45df5c	0.77293944
116	0xbe167d30	-0.14696193
117	0x3edff4fd	0.437416
118	0xbf0e265b	-0.55527276
119	0xbe18857b	-0.14894669
120	0x3ea4803c	0.32129085
121	0xbda9d8b1	-0.08293284
122	0x3f90faeb	1.1326574
123	0x3cf54145	0.02993835
124	0x3f4a339f	0.7898502
125	0x3f6311f9	0.886993
126	0xbd61b13d	-0.05510067
127	0xbd547b25	-0.051875252
128	0x3ed1a526	0.4094631
129	0x3f10991f	0.56483644
130	0xbf003b64	-0.5009062
131	0x3d17b777	0.0370402
132	0xbecd76b8	-0.40129638
133	0xbed45555	-0.41471353
134	0xbf2690f8	-0.65064955
135	0xbdbf25ea	-0.093334034
136	0x3f41f56b	0.75765103
137	0x3f79c0d7	0.97559875
138	0x3f19f140	0.60133743
139	0xbe4c7fda	-0.19970647
140	0xbf790228	-0.97268915
141	0x3f89572e	1.072973
142	0xbd9da638	-0.07697719
143	0xbf4c6eec	-0.79856753
144	0x3e90f175	0.28309217
145	0xbcab2eab	-0.020896276
146	0xbe369374	-0.17829686
147	0x3c85200f	0.016250638
148	0x3d2c8d06	0.042126678
149	0x3f0b8802	0.54504406
150	0xbea85b38	-0.32882094
151	0x3d34f38a	0.04417757
152	0x3e970cb2	0.29501873
153	0x3f23e36d	0.640189
154	0x3eff9416	0.49917668
155	0x3f02fdb1	0.5116835
156	0x3f1a350c	0.60237193
157	0x3ee050be	0.438116
158	0xbdb32e74	-0.087490946
159	0x3eb10e58	0.34581256
160	0xbdbffb4a	-0.093741015
161	0x3f292ff8	0.6608882
162	0xbea39017	-0.3194587
163	0xbec8a567	-0.39188692
164	0xbe82ab1a	-0.25521165
165	0x3f3737ce	0.71569526
166	0x3e977306	0.29579943
167	0x3eb2c459	0.34915426
168	0x3d84ef8b	0.06491002
169	0x3dddbc6b	0.108269535
170	0x3edfeb95	0.43734422
171	0xbeb8609d	-0.3601121
172	0x3ea969e1	0.33088592
173	0x3f0ed043	0.5578653
174	0x3eadfa21	0.33979896
175	0x3ef200ff	0.47266385
176	0xbe5ea522	-0.2174268
177	0xbe912405	-0.28347793
178	0x3ec40980	0.38288498
179	0xbf8a3ddf	-1.0800132
180	0x3f11a3f3	0.5689079
181	0x3ed0ab39	0.40755633
182	0xbd2e16a1	-0.04250205
183	0xbed7580b	-0.4205936
184	0xbc434f21	-0.011920721
185	0x3dd38e2a	0.1032985
186	0xbe8a14ab	-0.26968893
187	0x3e74adfb	0.23894493
188	0x3f58ca3f	0.84683603
189	0x3f14292a	0.5787531
190	0xbc7a4a3b	-0.015276487
191	0xbe784f74	-0.24249059
192	0xbf47877d	-0.77941114
193	0xbf57e23d	-0.8432959
194	0x3f1a18b3	0.6019394
195	0xbee8f2e3	-0.45497808
196	0x3f02e50b	0.5113074
197	0x3edda7d6	0.4329211
198	0x3c7861d2	0.015160041
199	0x3eac2104	0.3361894

sequential/dense_2/MatMul f4 [8, 10]
0	0x3eee75e4	0.46574318
1	0xbc917e00	-0.017760277
2	0x3f108ebe	0.5646781
3	0xbe2f19d5	-0.17099698
4	0x3e125419	0.14289893
5	0x3e1396b4	0.14412957
6	0xbf5e724f	-0.8689317
7	0x3ec260e5	0.3796455
8	0x3f555952	0.83339417
9	0x3ee762bf	0.45192525
10	0x3f174c69	0.5910097
11	0x3ea445ff	0.32084653
12	0xbcfa9a8d	-0.030591274
13	0x3de00942	0.10939266
14	0x3f543113	0.8288738
15	0x3f45f38d	0.77324754
16	0x3e89c780	0.2691002
17	0xbeb2acb2	-0.3489738
18	0xbf6bd877	-0.92127174
19	0xbcf5c421	-0.030000748
20	0xbe81a36e	-0.2532
21	0x3f3c93cf	0.7366304
22	0xbe345e11	-0.17614008
23	0xbfb55d1a	-1.4169037
24	0xbd06d192	-0.032914706
25	0xbf66ab85	-0.9010547
26	0x3f310b54	0.6915791
27	0xbf371796	-0.71520364
28	0xbf1ed032	-0.6203643
29	0x3f13e58b	0.5777213
30	0xbe656d50	-0.2240498
31	0xbf82df09	-1.0224315
32	0xbdb4da8c	-0.08830747
33	0x3f68203f	0.90674204
34	0xbf3995e3	-0.72494334
35	0xbfd68223	-1.6758465
36	0xbf6eb6db	-0.93247765
37	0xbee6028c	-0.44923818
38	0xbf3a5ceb	-0.7279803
39	0x3d1c0445	0.03809001
40	0xbf5d3e5f	-0.86423296
41	0xbf3ece93	-0.7453396
42	0xbfeb3687	-1.8376015
43	0x3d6f8a41	0.05848146
44	0xbe30d9fc	-0.17270654
45	0xbf9c3558	-1.2203779
46	0x3e486492	0.19569615
47	0x3f483e15	0.7821973
48	0x3eb4d102	0.3531571
49	0x3c9cd03c	0.019142263
50	0xbf0a7b23	-0.5409414
51	0xbe4dac7c	-0.20085329
52	0x3f3cd946	0.7376903
53	0xbf87bead	-1.0605065
54	0xbdee63c5	-0.11640123
55	0x3d9748a9	0.07386906
56	0x3f07a73e	0.52989566
57	0xbf8dd839	-1.1081611
58	0x3ecc080a	0.39849883
59	0xbfaafe32	-1.3358824
60	0x3e0bc1f4	0.13648206
61	0x3e32310b	0.17401521
62	0xbe9a3f0c	-0.30126226
63	0xbf49ed6d	-0.7887791
64	0xbead7e98	-0.33885646
65	0xbf0d2080	-0.55127716
66	0xbe85bd90	-0.26121187
67	0xbf85d14d	-1.0454499
68	0x3f1160a2	0.56788075
69	0xbebdc1ce	-0.37061924
70	0xbe7f1625	-0.24910791
71	0x3e6a5f7f	0.22887991
72	0xbf85157f	-1.0397185
73	0x3eab317e	0.33436197
74	0xbfa20973	-1.2659134
75	0xbe96b53d	-0.2943515
76	0xbf9360b4	-1.1513886
77	0x3e8c8eb8	0.27452636
78	0x3f43b153	0.7644245
79	0xbdefb7fa	-0.117050126
